iris_classifier.pt (torch, 3949 bytes, 4 tensors)

weight f4 [16, 4]
000000 7a 27 30 bf 5e 09 97 3f 32 b2 1b c0 5c f4 cd be
       -0.68810236 1.1799734 -2.4327512 -0.40225494
000010 b4 de 63 be c6 5c 81 3e d6 62 02 c0 25 65 9c bf
       -0.22252923 0.25266093 -2.0372825 -1.2218367
000020 43 45 2e 3e ee e6 03 3f b4 c5 f7 bf 5e 1e a6 bf
       0.17018609 0.51524246 -1.9357209 -1.2978017
000030 26 bf 6d be 4a 8b 82 3f b4 a0 f9 bf ea 28 9c bf
       -0.23217449 1.0198758 -1.9502168 -1.2199986
000040 c1 86 8e 3f c1 1a 0b c0 7c 9b 3d 40 c3 ba ed 3e
       1.1134874 -2.173508 2.962615 0.4643155
000050 ed 9d 64 3e a1 a9 98 bf d2 b3 da 3f 20 d1 85 3f
       0.22325869 -1.1926767 1.7086127 1.0454445
000060 4c cc 4c 3e dd 58 bc bf 5c 3e 00 40 83 cd 2e 3f
       0.19999808 -1.4714619 2.003806 0.68282336
000070 7b 4c f8 3e 89 85 ad bf 55 41 ae 3f ae 8a 5c 3b
       0.4849585 -1.3556377 1.3613688 0.0033651995
000080 07 10 81 bc c8 dc 31 3e 6a a0 06 40 6d 3a af 3f
       -0.015754713 0.17369378 2.103541 1.3689705
000090 03 f2 20 bc 3c 16 02 bf d4 be 10 c0 1b aa c3 bf
       -0.009823325 -0.50815177 -2.2616472 -1.5286287
0000a0 fd 14 fd 3e 29 8b 96 be 8d 55 cc 3f 9d ec a7 3f
       0.49430075 -0.29403046 1.5963608 1.3119084
0000b0 2d cb 88 3e 51 bf 87 3f bf 1e 88 3e e2 2c 95 3e
       0.2671751 1.060526 0.26585957 0.29135805
0000c0 6c 5d fe 3e cd 6a d4 bf 8c 69 09 40 4a 93 de 3e
       0.4968065 -1.6595093 2.147067 0.43471748
0000d0 9e eb 40 bd d1 7b ac 3e 8f 3d a8 3f ef 5b 50 3f
       -0.047099702 0.33688214 1.3143786 0.8139028
0000e0 8f a8 0f be 59 a0 82 3f 8a 9f c1 bf 4a 71 9b bf
       -0.14029144 1.0205184 -1.5126812 -1.2143948
0000f0 4a 84 38 3f 18 38 e5 bf ab b9 01 40 87 30 7f 3e
       0.7207686 -1.7907743 2.0269573 0.24920855

bias f4 [16]
000000 46 3f 81 bd 91 04 f1 3e 12 71 38 be 49 ba 63 3e
       -0.063108966 0.47073796 -0.18011883 0.22239031
000010 56 0e 08 3e 68 8d a2 3e c1 b8 2f 3d 29 de ac bd
       0.13286719 0.3174851 0.042900804 -0.08440811
000020 b0 ca 67 3d 6f 06 37 3d 41 3b ee be a0 be 8d be
       0.056589782 0.04468387 -0.46529582 -0.27684498
000030 af 62 9c 3e d4 f6 ce 3d e3 6f 2e be c2 9a e9 bd
       0.3054404 0.101056725 -0.17034869 -0.11406471

weight f4 [3, 16]
000000 37 59 a1 3f f8 92 78 3f a2 3a 62 3f 08 fd 98 3f
       1.2605351 0.97099257 0.88370717 1.1952219
000010 46 c0 be bf ba 96 4f bf 9d 02 97 bf 0f ed 53 bf
       -1.4902427 -0.81089365 -1.1797673 -0.827836
000020 14 e8 9e bf c2 53 14 3f 5a 3e 5f bf d1 3c a0 3d
       -1.2414575 0.57940304 -0.87204516 0.078241
000030 92 00 a3 bf 8a 99 ce be e2 c4 1a 3f 56 df 42 bf
       -1.2734549 -0.40351516 0.6045667 -0.76122034
000040 bb 54 06 bf 6e af d7 3e e1 45 b4 3e ed 4f d6 bc
       -0.5247304 0.4212603 0.35209563 -0.026161158
000050 4a 45 a3 3e 84 1c 53 3d a7 ce 91 bd 36 f5 a3 3e
       0.318888 0.051540866 -0.07119494 0.3202302
000060 d7 c0 b0 be 14 e9 15 3f d1 ec 99 be db ca a8 be
       -0.34522125 0.58558774 -0.3006349 -0.32967266
000070 f0 86 a8 3e eb 11 95 be 70 c8 8f 3c 75 f0 8b 3e
       0.3291545 -0.29115233 0.01755163 0.27331892
000080 7e b3 72 bf cd 13 95 bf d5 d8 84 bf e0 66 c2 bf
       -0.94805133 -1.1646668 -1.0378672 -1.5187645
000090 18 1d e3 3e 96 22 0b 3f 3c 18 d5 3e 13 18 31 3d
       0.44358134 0.5434965 0.41620052 0.04323585
0000a0 fb b7 a0 3f eb d9 a6 bf af c8 63 3f d6 fc 10 3e
       1.2556146 -1.3035253 0.88978094 0.1415895
0000b0 52 74 0b 3f e2 c2 de 3e 91 db 33 bf df d3 a3 3e
       0.54474366 0.4350806 -0.70256907 0.31997582

bias f4 [3]
000000 a2 9e de bb 48 ae 3d be ab 11 55 bd
       -0.006793813 -0.18523514 -0.052018803
